Model: "model"
_________________________________________________________________
Layer (type)                 Output Shape              Param #   
=================================================================
input_1 (InputLayer)         [(None, 36)]              0         
_________________________________________________________________
multi_category_encoding (Mul (None, 36)                0         
_________________________________________________________________
normalization (Normalization (None, 36)                73        
_________________________________________________________________
dense (Dense)                (None, 1024)              37888     
_________________________________________________________________
re_lu (ReLU)                 (None, 1024)              0         
_________________________________________________________________
dense_1 (Dense)              (None, 256)               262400    
_________________________________________________________________
re_lu_1 (ReLU)               (None, 256)               0         
_________________________________________________________________
dense_2 (Dense)              (None, 512)               131584    
_________________________________________________________________
re_lu_2 (ReLU)               (None, 512)               0         
_________________________________________________________________
dropout (Dropout)            (None, 512)               0         
_________________________________________________________________
regression_head_1 (Dense)    (None, 3054)              1566702   
=================================================================
Total params: 1,998,647
Trainable params: 1,998,574
Non-trainable params: 73
_________________________________________________________________
